python/ExodusNNTrainer/temp/conc_stress_coupled.pt (torch_old, 3043 bytes, 5 tensors)

0.weight f4 [20, 2]
1.0771261 -0.16137554 -0.9960689 0.34373423 -0.9256262 0.87517583 -0.9501945 0.13117747
-0.5804309 -1.7815269 2.189976 -3.766686 -0.45124876 -1.6666926 0.5056753 -0.9304254
0.28708237 -0.62673265 0.0488058 0.43001068 0.91677314 -0.16540617 -0.9300944 3.2608361
0.1811645 0.27317134 -0.24393271 1.1005555 0.27303004 0.25905296 -1.1010585 -1.8052506
0.15124735 0.258411 0.1217956 -0.46828374 0.3170882 -0.7110475 0.16888557 -0.5366555
00000000: 45df 893f a13f 25be 5ffe 7ebf effd af3e
00000010: d7f5 6cbf 860b 603f f23f 73bf 6353 063e
00000020: 1f97 14bf 1309 e4bf 9128 0c40 6211 71c0
00000030: 140a e7be 2f56 d5bf f073 013f 5c30 6ebf
00000040: 76fc 923e 8d71 20bf 97e8 473d 5c2a dc3e
00000050: a5b1 6a3f 3c60 29be ab1a 6ebf 8ab1 5040
00000060: 3083 393e 1ddd 8b3e 7fc9 79be 01df 8c3f
00000070: 98ca 8b3e 97a2 843e 7cef 8cbf 7412 e7bf
00000080: 96e0 1a3e 724e 843e f96f f93d e3c2 efbe
00000090: 6259 a23e 3507 36bf 57f0 2c3e 4162 09bf

0.bias f4 [20]
0.09539065 -0.40564436 -1.2759324 0.044504303 -0.12710196 0.08854301 0.15535814 -0.088222414
-0.6930391 0.29022604 -0.025036646 -0.47217372 0.59786105 0.23564784 0.6475052 1.7804062
0.53231615 -0.5866822 -0.24580579 -0.60505915
00000000: 2c5c c33d 9eb0 cfbe c151 a3bf 254a 363d
00000010: 0427 02be 0a56 b53d 3416 1f3e f4ad b4bd
00000020: 036b 31bf 8298 943e a719 cdbc c1c0 f1be
00000030: 6c0d 193f ab4d 713e e7c2 253f 5ae4 e33f
00000040: df45 083f ce30 16bf 83b4 7bbe 28e5 1abf

2.weight f4 [20, 20]
-0.0075806775 0.032716103 0.0723248 -0.22880296 0.09397136 0.018487357 0.57531935 -0.24514884
0.09343744 -0.11738325 0.29282436 -0.01572965 0.21285203 0.24038568 -0.16759285 0.03581572
0.21448603 0.10195055 -0.26470634 -0.09536954 0.4822209 -0.23038928 0.008728082 0.6577057
-0.023738809 0.9970321 0.6938076 0.15784022 0.111801505 0.15912732 0.009199262 -0.21896252
0.16819738 -0.268906 -0.07140961 0.30739895 -0.112019464 -0.18206114 0.026795993 0.14310884
0.29734072 0.045584776 -0.039813988 -0.27266344 -0.06211755 0.59527606 0.8720324 0.011105026
-0.18146837 0.26325938 0.39487064 -0.017951397 0.004403115 -0.13695756 -0.17642263 -0.03651674
0.13065049 0.048841543 -0.16028737 0.043463025 -0.11499653 0.12978815 0.15812248 0.5009526
-0.18420516 -0.12737575 -0.24114688 0.061145227 -0.17329791 0.057926606 -0.30110893 0.3486129
0.11814983 0.054448973 -0.09600438 -0.15186556 -0.11969087 0.26215297 -0.05469728 -0.10932947
0.23773451 0.18442065 -0.04860977 -0.18150814 0.20267402 -0.29419845 0.39523706 -0.27256328
-0.249788 0.042574108 0.3810044 0.09397011 -0.067054436 0.17525405 -0.05878704 0.21175054
-0.17349929 0.097126454 -0.026840081 0.1166825 -0.031048777 -0.09029093 0.19218849 0.13205051
-0.07096546 0.060462885 -0.509551 0.29957625 0.25225893 0.040989388 -0.1491892 0.4489129
-0.2104769 -0.15680629 0.17697519 -0.1932384 0.1050444 0.15714791 0.26791465 0.20288493
-0.17929792 0.19293654 0.15447931 0.6140482 -0.122643605 -0.3557498 -0.92199516 0.0956563
0.2025803 -0.045497842 -0.5319431 0.5259557 -0.19286975 0.1436262 -0.26733968 -0.092761576
-0.01774546 -0.076403596 -0.0803833 0.24705808 0.17174758 -0.2543835 0.10411434 -0.2643203
0.08918258 0.53993535 0.68604195 0.081611134 0.017752508 0.13427864 0.47384575 -0.3574763
-0.038095154 -0.122549966 0.13135555 0.20436974 0.1727253 -0.036283113 -0.29166743 -0.26471257
0.24350728 -0.05700055 -0.044511527 -0.15498488 0.25324717 0.4686963 0.43351313 0.15691914
0.20733276 -0.18675812 0.18118122 -0.025213689 0.21574563 -0.28779423 -0.011862314 0.0010860031
-0.18684253 0.0032354458 0.11978646 0.19048628 0.805519 -0.07064175 -0.11009714 -0.7173136
0.077676654 0.6501252 0.8028447 -0.2544043 0.037021033 0.3327805 0.926952 -1.6454593
0.3015776 0.19725408 0.23866697 0.4779385 0.019151092 0.08612783 -0.11009132 -0.006964265
0.6987553 -0.08090212 -0.039714873 0.19620906 0.05907104 1.4884702 0.70830166 0.013858745
0.10521798 0.037193954 1.2388811 -0.5678489 -0.025670446 -0.26253968 0.056679916 0.35493094
0.21145974 0.0667226 0.12719283 0.23816103 -0.23228146 0.04714436 0.020451335 -0.021234376
0.14593545 0.091452695 -0.3904126 0.29845464 -0.008150939 -0.0076564057 -0.33216974 0.26768145
-0.16627361 0.03872439 -0.017519733 -0.041628875 0.026223587 -0.029487723 -0.065877914 0.18871057
1.2911618 -0.68239623 -0.07270134 -2.037716 0.2787638 0.8322463 0.8241381 -0.36917853
-0.23394151 0.35022467 1.8984601 -0.59097904 0.23639318 0.10663344 -0.11189805 -0.38870603
00000000: 5567 f8bb 5201 063d 061f 943d 534b 6abe
00000010: 0e74 c03d cc72 973c 2148 133f 4c08 7bbe
00000020: 215c bf3d a166 f0bd 13ed 953e 78db 80bc
00000030: e2f5 593e aa27 763e 769d 2bbe 81b3 123d
00000040: 3aa2 5b3e 73cb d03d 9787 87be 1b51 c3bd
00000050: a8e5 f63e 2beb 6bbe 3b00 0f3c 675f 283f
00000060: e477 c2bc 7f3d 7f3f 609d 313f dea0 213e
00000070: 30f8 e43d 46f2 223e 80b8 163c b637 60be
00000080: ef3b 2c3e 0cae 89be 343f 92bd 6563 9d3e
00000090: 766a e5bd 3c6e 3abe 4583 db3c 208b 123e
000000a0: 0b3d 983e 1ab7 3a3d fe13 23bd 8b9a 8bbe
000000b0: f96e 7ebd 0364 183f 843d 5f3f dbf1 353c
000000c0: d8d2 39be efc9 863e 7c2c ca3e cf0e 93bc
000000d0: 0148 903b 9a3e 0cbe 22a8 34be 9492 15bd
000000e0: 3ec9 053e 120e 483d 5f22 24be 4906 323d
000000f0: 4d83 ebbd 2fe7 043e dcea 213e 6e3e 003f
00000100: 47a0 3cbe ca6e 02be 35ef 76be 6b73 7a3d
00000110: 0275 31be 7344 6d3d f32a 9abe 647d b23e
00000120: 8af8 f13d e305 5f3d f29d c4bd a582 1bbe
00000130: 7d20 f5bd ea38 863e 410a 60bd 21e8 dfbd
00000140: ad70 733e c4d8 3c3e 0a1b 47bd 45dd 39be
00000150: c789 4f3e 2ea1 96be 835c ca3e 6a8d 8bbe
00000160: 6dc8 7fbe 3062 2e3d 0213 c33e 6773 c03d
00000170: d653 89bd cc75 333e aeca 70bd 22d5 583e
00000180: cca9 31be 3cea c63d bbdf dbbc 3cf7 ee3d
00000190: 015a febc 73ea b8bd 0fcd 443e 4038 073e
000001a0: 5756 91bd eea7 773d ef71 02bf 0f62 993e
000001b0: 1528 813e 7de4 273d 0ec5 18be e9d7 e53e
000001c0: 4287 57be d491 20be fc38 353e 4ae0 45be
000001d0: 8521 d73d 62eb 203e 1c2c 893e 11c1 4f3e
000001e0: e099 37be 2891 453e d32f 1e3e 4332 1d3f
000001f0: 922c fbbd d624 b6be e007 6cbf 73e7 c33d
00000200: 3671 4f3e f25b 3abd 6c2d 08bf 08a5 063f
00000210: a67f 45be bf12 133e bfe0 88be c8f9 bdbd
00000220: ed5e 91bc 7d79 9cbd 00a0 a4bd cbfc 7c3e
00000230: 99de 2f3e 8e3e 82be e639 d53d fe54 87be
00000240: 5ba5 b63d 3439 0a3f 72a0 2f3f bd23 a73d
00000250: b56d 913c 5780 093e e99b f23e 2207 b7be
00000260: aa09 1cbd 7afb fabd 1282 063e 4d46 513e
00000270: e7de 303e 9a9d 14bd 6f55 95be 6888 87be
00000280: f959 793e 6979 69bd b851 36bd 5bb4 1ebe
00000290: 9da9 813e f6f8 ef3e 6ff5 dd3e 69af 203e
000002a0: 0a4f 543e 853d 3fbe 9287 393e f08c cebc
000002b0: 6cec 5c3e c459 93be 275a 42bc 3858 8e3a
000002c0: a653 3fbe c609 543b 9b52 f53d d60e 433e
000002d0: 7e36 4e3f 9fac 90bd 9c7a e1bd dda1 37bf
000002e0: f014 9f3d 9b6e 263f 3b87 4d3f 4841 82be
000002f0: 5ea3 173d 3562 aa3e ba4c 6d3f 699e d2bf
00000300: 6168 9a3e f9fc 493e 1d65 743e 5bb4 f43e
00000310: c0e2 9c3c ca63 b03d 8f77 e1bd 7d34 e4bb
00000320: a1e1 323f 03b0 a5bd 10ac 22bd 07eb 483e
00000330: 7af4 713d 3186 be3f 4253 353f ca0f 633c
00000340: 867c d73d b058 183d a893 9e3f 8c5e 11bf
00000350: d44a d2bc 9a6b 86be 3329 683d 82b9 b53e
00000360: e788 583e dca5 883d d63e 023e 7ce0 733e
00000370: 31db 6dbe 721a 413d 8f89 a73c b7f3 adbc
00000380: 1a70 153e 8d4b bb3d 29e4 c7be 0ccf 983e
00000390: 848b 05bc 96e2 fabb 2712 aabe 8b0d 893e
000003a0: a143 2abe 779d 1e3d 8b85 8fbc 0a83 2abd
000003b0: d9d2 d63c 3d90 f1bc 00eb 86bd 583d 413e
000003c0: ca44 a53f 85b1 2ebf 71e4 94bd f069 02c0
000003d0: 21ba 8e3e 180e 553f b7fa 523f f804 bdbe
000003e0: 5d8e 6fbe a650 b33e be00 f33f 674a 17bf
000003f0: 0e11 723e a262 da3d ce2a e5bd 7a04 c7be

2.bias f4 [20]
0.12868057 0.0017137894 0.25769514 0.09925238 -0.036276877 -0.19068658 0.13543078 0.17229737
-0.18245412 0.16456546 0.04350875 0.16300671 0.22642364 -0.19271052 0.013173414 -0.34233668
0.052610144 0.08476062 -0.0973867 0.15600039
00000000: d7c4 033e 3ba1 e03a 9ef0 833e d544 cb3d
00000010: 1097 14bd 5843 43be 5eae 0a3e b96e 303e
00000020: 41d5 3abe d983 283e 3b36 323d 3beb 263e
00000030: 99db 673e e855 45be 4ed5 573c c146 afbe
00000040: bc7d 573d fa96 ad3d ae72 c7bd 91be 1f3e

4.weight f4 [1, 20]
0.17356248 -0.26430762 0.2032545 -0.17295127 0.29245362 -0.25081888 -0.35827938 0.14966998
-0.2070086 0.20229454 -0.202027 -0.13690913 0.20288233 0.068217985 0.31065407 0.20468782
0.2501185 -0.17845397 0.57691187 -0.17363712
00000000: 5dba 313e 5453 87be f321 503e 231a 31be
00000010: 7bbc 953e 556b 80be 6570 b7be 1643 193e
00000020: 10fa 53be 4d26 4f3e 2ae0 4ebe e831 0cbe
00000030: 63c0 4f3e dfb5 8b3d 0d0e 9f3e af99 513e
00000040: 880f 803e a3bc 36be 7fb0 133f eecd 31be
